my_mnist_brain_CNN.pt (torch, 742311 bytes, 8 tensors)

conv_layers.0.weight f4 [32, 1, 5, 5]
00000000: ae65 a2bd 059a d03e f01c a23e f311 52bc
00000010: 4403 003d a7cb 913e dc1f e33e b196 843e
00000020: 2a98 77be dd81 87be b90d a03e 0b9e 953e
00000030: 4528 223e e842 2cbe 9096 94be e918 253e
00000040: 66bb b73e fbb0 b73e 0862 5b3e 734a 5b3e
00000050: 51aa 7c3e e579 743e 4ccf 913d ce35 823e
00000060: 2078 883e 9b9a d5bd 923e c9bc 0b15 06be
00000070: fc1c 47be db09 41be 28ae 91bd e0f7 0cbe
00000080: 927a d2bd 203f 1a3e 7c28 003e 4702 163e
00000090: ebd8 55be 4efd aabd e7fc ebbd 1168 94bc
000000a0: 0c2d e53d 2e9d 12be 016d a2bd 73c4 933c
000000b0: 67a1 e3bd ae9b 80bd a7b5 c4bd 556f 05bd
000000c0: 6d62 ebbd a961 233b dbc6 653d 3f1a 35be
000000d0: 8cb6 3a3e 3544 a2bd ca2d 5fbc b96b 4f3d
000000e0: af4c bb3b 0d30 1dbe 062b 803e a427 423d
000000f0: 78d7 e8bd d972 0c3d dab9 0cbc 22e5 8b3e
00000100: 18d7 b93e 2437 cf3b 62c5 7f3e 3549 103e
00000110: 90af 5e3e d9da 373e 3130 1cbd 3f05 3fbc
00000120: 80d1 823e 4f51 26be 8c3f 03be 7463 533e
00000130: 4c40 213e ce41 c3bd eced 663e c65a 803d
00000140: 1b1a 093e d969 82bd 376c 3dbe ac90 dabc
00000150: 6f49 ebbd ed03 0ebe 97a5 133e 2f54 3b3e
00000160: e493 dfbd 63d8 bb3b c9d3 2138 984b 15be
00000170: eb85 203e d5e6 25be f20d 353d c59e adbd
00000180: c848 09be 0fa9 0f3e 8c9c 0e3e 158e 11be
00000190: 63d7 4abe 0a83 2abd a0c9 97be 6dfb 97bc
000001a0: c122 9e3d cd14 fd3d babc 5bbe 38d7 29be
000001b0: 363e 1f3e 5185 9d3e 71ae 753d 2282 ad3d
000001c0: a2d3 673e 22fb 7c3e 7334 8b3e a93c 8b3e
000001d0: 6555 e83e f823 0e3f d4b7 373e 1ea2 533e
000001e0: 0ca3 923e 39bf e63e e188 ce3e c3d2 953e
000001f0: 8dda d939 fe7c e6bd 7ae6 a33d 15f7 fb3c
00000200: 7529 cebd 5e07 3cbe 27b3 603d a281 e13d
00000210: f931 6c3d a712 0abe 01bf c8bd 712c 473e
00000220: 7f64 33be 296d 133e 44a8 803d 833b 1cbe
00000230: a15b 0d3e d5c4 5a3e 6c93 97bd 912f b9bd
00000240: c3d7 643d 04d8 ecbd f23a a2bd b0a7 dabd
00000250: 0f53 96bc ca61 db3b 5a5a c33d ee0d d93b
00000260: 4581 95bd 3325 8fbc d24a 653e c3c0 c23d
00000270: bd44 8dbd 4dd0 0c3e a258 fbbc ec46 193d
00000280: 9988 37be 0270 8b3d c477 09be 39ef 9e3d
00000290: 405a 00be 9323 c0bc 996e 5ebe a14a 4cbe
000002a0: 412c 1fbe e6e7 1dbe 9957 403c 23c9 883d
000002b0: 2aa0 85bd a9ea cb3d 9a50 e9bd 538c 00be
000002c0: 8938 cf3d 41f9 bf3c 3c06 16be b949 80bd
000002d0: ef62 15be 58b0 be3d 28ac 683e ad8a 4e3e
000002e0: 6af0 3fbe dbea 673e 89b4 aebd 54b5 b93e
000002f0: 09bc b03e c81b 07bd ec25 d5bd c607 783d
00000300: e686 233e 3e72 9f3e 8859 dd3d 6ab0 87bb
00000310: 8598 50be a95e 22be f4db 09be e98c 7d3e
00000320: 9731 183e 1833 a43e a367 c63e f537 723e
00000330: c86f 8a3e d9c0 8f3d 29f5 383d acdc fb3e
00000340: 47c2 083e a006 a43d ec0c 09be 8c58 9c3e
00000350: b2bd 093f fec7 963e 6a71 873d 6fb3 ffbd
00000360: a818 bd3e 8b38 013f ee48 d73e 1cff 053e
00000370: 171c d1bd bf6b 9e3d 6f2a af3e 119a d0ba
00000380: 8d7e 373e 7e2f 7ebd ef08 653d a5be dfbd
00000390: 6eb6 973d 05cf 07be 46e9 443e a965 9d3e
000003a0: 09ee 6f3e 6186 323e d4b7 9d3e 7bea a6bd
000003b0: 455a 743e b5df d33d 7732 193e c240 b83e
000003c0: da7b 55be 69f1 23bd f3ef 493e c451 533e
000003d0: 841f 99bc f422 c0bd 6e67 4dbd d5c9 47be
000003e0: fae1 c63d b0b8 a53c fca8 e53d 1e1c 11be
000003f0: dcaa cebd 7bcc 443e 0a03 b23d 96e5 2abe
-0.0792955 0.40742508 0.31662703 -0.012821662 0.031253114 0.28475687 0.44360244 0.25896218
-0.2417914 -0.26466265 0.3126047 0.2922214 0.15835674 -0.16822398 -0.2902112 0.16122784
0.3588516 0.35877213 0.21424115 0.21415119 0.24674346 0.23874624 0.07119617 0.25431675
0.26654148 -0.10429879 -0.024565969 -0.13093965 -0.1944465 -0.18851416 -0.07113296 -0.13766432
-0.10277285 0.15063143 0.12515444 0.14649306 -0.20883529 -0.08349095 -0.11522847 -0.018116029
0.11190233 -0.14317772 -0.07930947 0.01803801 -0.111147694 -0.062796935 -0.0960496 -0.032576878
-0.114933826 0.0024930036 0.056097846 -0.17685793 0.18233699 -0.07923166 -0.013621757 0.05063984
0.0057159285 -0.15350361 0.25032824 0.047401085 -0.113692224 0.034289215 -0.008589232 0.27323252
0.36296916 0.006323712 0.2497764 0.14090426 0.2174666 0.17954578 -0.038131896 -0.011658966
0.2555046 -0.16241954 -0.1281721 0.20643407 0.15747184 -0.095340356 0.22551697 0.06267314
0.13388865 -0.06367845 -0.18498312 -0.026680313 -0.11488616 -0.13868685 0.14418636 0.18293832
-0.1091688 0.0057325824 3.858263e-05 -0.14579618 0.15676086 -0.16201337 0.044202752 -0.084775485
-0.1340667 0.14029334 0.13926905 -0.14214356 -0.19808726 -0.041628875 -0.29646015 -0.018552506
0.077214725 0.12357483 -0.21458712 -0.16586006 0.15551075 0.30765775 0.059980813 0.084720865
0.22639325 0.24705175 0.27188453 0.27194718 0.4537765 0.55523634 0.17941219 0.20667312
0.2864002 0.45067766 0.40338805 0.2926236 0.00041552298 -0.11254309 0.08002944 0.030757466
-0.10066501 -0.18362185 0.054858353 0.110110536 0.057664845 -0.13483678 -0.09802056 0.19450547
-0.17518805 0.1439711 0.06282094 -0.15257077 0.13804485 0.21364148 -0.07401165 -0.09042276
0.05586983 -0.11564639 -0.07921399 -0.10676515 -0.018350152 0.006695007 0.095387176 0.006623975
-0.07300047 -0.017473793 0.22391823 0.09509423 -0.068978764 0.13751335 -0.030681912 0.037421152
-0.17923202 0.06808473 -0.13424593 0.07760472 -0.12534428 -0.023454463 -0.21721877 -0.19950344
-0.15544225 -0.15420493 0.011739635 0.06678989 -0.065246895 0.09956867 -0.11392327 -0.1255353
0.10118205 0.023434283 -0.14650816 -0.062640615 -0.14588521 0.09310979 0.22721922 0.20170088
-0.18744054 0.22648184 -0.08530528 0.36271155 0.3451846 -0.03298548 -0.10407624 0.06055429
0.15969428 0.31141847 0.10808092 -0.0041409032 -0.20370682 -0.15856422 -0.13462812 0.24760784
0.14862667 0.3207023 0.38750944 0.23654158 0.27038407 0.07019205 0.045155678 0.49191797
0.13355361 0.08009076 -0.13383836 0.30536306 0.5380508 0.29449457 0.06613429 -0.12485396
0.36932874 0.504769 0.42047828 0.13085598 -0.10210436 0.07735395 0.34212062 -0.0015915056
0.17919369 -0.06205701 0.055916723 -0.109250344 0.074078426 -0.13262565 0.19229612 0.30741623
0.23430647 0.17434074 0.30804312 -0.08150192 0.2386256 0.10345403 0.14960657 0.35986906
-0.20848027 -0.04002515 0.1972044 0.2063666 -0.018691786 -0.09381667 -0.050147466 -0.19510587
0.0971107 0.020229667 0.11213872 -0.14170882 -0.100911826 0.19218628 0.08691986 -0.16689143

conv_layers.0.bias f4 [32]
00000000: 52a0 6e3c 5fc1 823e 5516 2239 921a 773c
00000010: 640e 1a3e f439 413e 86d3 4e3e 804b f83d
00000020: 186d 523d 90e3 523d 48f6 f3bd 15ce 1abd
00000030: 662a 3c3e 21fe b73d a8aa c73c ac6b a2bd
00000040: 2f40 f5bd a682 7bbd 0de4 cbb8 6d96 4f3e
00000050: 503f ca3d df99 8fb8 c74f 9f3d 44ce 083e
00000060: 7381 063c 6a1f 263e 321e f6ba 299f 62bc
00000070: a0b5 3fbb b6b1 c0bd 3a39 123e 66ef 923d
0.0145645905 0.25538155 0.00015457843 0.015082018 0.15044552 0.18869764 0.20197877 0.121237755
0.05137357 0.05148655 -0.11912209 -0.03779419 0.18375549 0.08984018 0.024373367 -0.07930693
-0.11975133 -0.061403893 -9.722272e-05 0.20272227 0.09875357 -6.847432e-05 0.07778888 0.13359934
0.008209574 0.16222921 -0.001877731 -0.013831892 -0.0029252544 -0.09408896 0.14279643 0.07174568

conv_layers.3.weight f4 [64, 32, 5, 5]
00000000: 6fd6 f2bc ecd6 563c b697 7ebc 315c 1dbd
00000010: 590d 913b 7b1c 663d 25b1 a53d 687b 2e3d
00000020: c094 0e3a 7185 19bd 2001 9fbb e9d7 103d
00000030: deca 3f3d b970 0c3d c5cd 483d 9104 e7bc
00000040: f2af 2dbd 59f8 afbb d978 dfbc 0392 9a3c
00000050: e963 dfbc e9e0 03bd 1abf 02bd a395 99bd
00000060: 6b68 64bd 6c48 98bb f5ed 2cbc cf34 be3c
00000070: b46b e7bc 3372 673b 28f9 aabc 8f24 99bc
00000080: ae2b 893a b239 d9bc 61d7 bf3c 6f61 43bc
00000090: 4032 f23c 68a8 9dbc acd3 5cbc a43c 0f3c
000000a0: 014d ffbc f9a9 b83c b3ac efbb bd32 8c3c
000000b0: 2eb1 dcbc 96b4 943c 60a2 703c 71d2 b739
000000c0: d484 0dbd f041 44ba 4efb d9bc 641a d43c
000000d0: 0ce3 f7bc 053e 2cbd c5a3 18bd df10 c53c
000000e0: 3529 0fbd af18 a43c 3727 c8bb 3cce faba
000000f0: 8ea2 ca3c c816 283c b00f 1e3c 8b6a c43c
00000100: 4530 d5bc 5ace dbbc f1e4 dd3c 4715 293c
00000110: 36d4 cb3c f92e c83c 99ae 0abd 505b 35bc
00000120: 0c3e a0bc 7446 1b3c b454 18bd 694b f03b
00000130: 4cb8 e4bc e235 2c3c 3953 0dbd ade1 033d
00000140: e519 ef3c 14c7 9e3c 0b97 ecbc 28b1 9bbc
00000150: c1ce c63c 1ac6 063c 2131 b3bc d876 b9bc
00000160: 0c70 82b9 8e5e 853c 841d d7bc 7263 8d3b
00000170: db65 2dbc aac6 663c 83cb b13c 4739 08bd
00000180: 6f0d 893c 1fab 9b3c b116 f43c a305 90bb
00000190: a532 f3bc cdcb c7bc a0a2 0bbd 5bb1 4ebd
000001a0: cb0d 41bc 422d 0b3c 08f9 563d 45e3 563d
000001b0: 3bea 853d 872b 61bb 2349 22bd 182a 2c3d
000001c0: e845 6f3d 9669 b43d 0a12 7b3d cdf4 1a3c
000001d0: 4960 6ebd ab38 64bd 6950 58bd 9cd6 8c3c
000001e0: 5b19 a8bc 868b 1bbb be3b dd3c 64f3 49bb
000001f0: c198 18bb e31e 043d 0661 d93c c167 46bc
00000200: 8a88 f8bc 3252 c23c 902c dabc 805c 2fbc
00000210: 5f52 05bd a6cc 12bd eccb eebc 666a 0abd
00000220: de13 6fbc 1f73 813c a2d7 4bbc 45a2 1f3d
00000230: fecc 10bd 2a25 e3bc 2236 a5bc f78a a1bc
00000240: 9d96 cbbc b2bb b9bc b9dc 27bd 992f b539
00000250: 6479 c1bc ea13 d7bc 0843 34bc 821c f2bc
00000260: 1dc2 273b dec1 d0bc 9c49 0f3c be2d 6e3c
00000270: 5817 b8bc 8294 103d 063f 9f3b a90c dd3c
00000280: d6d4 f2bc de51 50bc 823d 12bd 9e9d dfbc
00000290: efba bbbc 38d1 a23c 42b2 3e3d 0ac3 b5bb
000002a0: cb96 da3c ce52 e5bc d04a b1bc 6921 3b3b
000002b0: b82d 0fbc 28f2 14bb 0af2 9839 ab46 813b
000002c0: e509 96bc 6bf2 19bd 8b6e 113c 0232 e4bb
000002d0: b8e9 5cba 40cd 95bb f572 61bc 63a8 283c
000002e0: b086 5ebc 6236 c53c 7035 793d 38f3 833d
000002f0: c9fa 403c c8a4 293d 8600 cb3c 6baa a1bc
00000300: ee91 f4bb fd40 fd3b a191 cf3b 7919 d83c
00000310: 0258 95bc 1359 9fbb 44d3 28bd bd35 54bc
00000320: 5947 febc fccc c0bc 76fa a9bb df40 3dbc
00000330: 081a 45bd 8e26 ee3c d4c5 523b 5c11 f5bc
00000340: 7e6a aebc 695c 88bc 11c8 223d 9137 a73c
00000350: 5924 b73c 323e 893d 9368 19bb 879b cebc
00000360: 9cbb a63c 3690 2b3d 37a6 943d d427 4a3d
00000370: 8972 76bc 7070 85bc 8521 f5bc 5745 16bc
00000380: 4523 f83c 85f0 e5b6 75ca 0ebd c953 9fba
00000390: fd37 543c 46ff 19bd 38aa 133c 98aa 6a3c
000003a0: 782b 04bd 1791 bbbb ddcb 27bd 293e 623d
000003b0: 228a 6a3d 18a6 9d3c dea7 9a3c 0239 c23b
000003c0: b025 c8bb bb3d 353d 6b32 d53c 5498 7c3d
000003d0: 94f4 a63c e036 32bd c3f5 4abd cf3a dcba
000003e0: 71c3 5ebc c6f3 9c3c 4160 e43c 39d2 d33c
000003f0: 3f79 0c3c 7afa f03c 2cf2 b3bc 57df 3d3c
-0.029643266 0.013112765 -0.0155391 -0.038418 0.00442664 0.056179505 0.08090428 0.042598158
0.00054390356 -0.037480775 -0.004852429 0.035362158 0.04682433 0.03428719 0.049024362 -0.02820042
-0.042404123 -0.0053701815 -0.027279304 0.018868452 -0.02726932 -0.032196913 -0.03192053 -0.07499244
-0.055763643 -0.0046473052 -0.01055478 0.02321854 -0.028249599 0.003531587 -0.02087076 -0.01869419
0.0010465288 -0.02651677 0.02341813 -0.011925085 0.029564977 -0.019245341 -0.013478201 0.008742485
-0.031164648 0.022541987 -0.0073142885 0.017114038 -0.026939955 0.018152516 0.014687151 0.0003506127
-0.034550503 -0.0007486632 -0.02660909 0.02589149 -0.030259632 -0.042051334 -0.037265558 0.024055896
-0.034951407 0.020031301 -0.0061081904 -0.0019134949 0.024735715 0.010259338 0.009647295 0.023976585
-0.026023993 -0.026831795 0.027086707 0.010320014 0.024881463 0.02443646 -0.033857916 -0.011069134
-0.019560836 0.009477247 -0.037190154 0.0073332083 -0.02791991 0.010510894 -0.034503195 0.032197643
0.029187152 0.019382037 -0.028880617 -0.019005373 0.02426851 0.008225942 -0.021874012 -0.022639677
-0.00024879014 0.016280439 -0.026259191 0.0043148333 -0.010583366 0.014085451 0.021703487 -0.03325775
0.016730038 0.019002495 0.029795976 -0.004395203 -0.029687235 -0.024389172 -0.03409064 -0.050462108
-0.011783074 0.008494677 0.05248359 0.052462835 0.065388165 -0.003435822 -0.03962053 0.04203233
0.058416277 0.088092014 0.0612965 0.009457779 -0.058197293 -0.055718105 -0.05281106 0.017192177
-0.020519903 -0.0023734285 0.027006026 -0.0030815238 -0.0023284408 0.03225602 0.026535522 -0.012109698
-0.030338544 0.023720834 -0.026632577 -0.010703206 -0.03254926 -0.0358397 -0.029149972 -0.033792876
-0.014592139 0.015801964 -0.012441548 0.03897311 -0.035351746 -0.027727682 -0.020167414 -0.019719584
-0.024852091 -0.022672508 -0.040981982 0.00034558473 -0.023617454 -0.026254613 -0.01100231 -0.02955461
0.0025597878 -0.025483068 0.008745577 0.014537273 -0.022472069 0.035297878 0.004859808 0.026983576
-0.029642504 -0.012714831 -0.03570319 -0.027296837 -0.022916285 0.019875154 0.04655672 -0.005546932
0.026683232 -0.027993586 -0.021642119 0.002855385 -0.008738928 -0.0022727344 0.00029172032 0.003945192
-0.018315265 -0.037584703 0.008876453 -0.006963969 -0.0008427161 -0.004571587 -0.013760318 0.010294053
-0.013581917 0.024073783 0.060841978 0.06442875 0.011778542 0.041416913 0.024780523 -0.019734582
-0.0074636852 0.0077286945 0.006334499 0.026379334 -0.018230442 -0.0048629134 -0.041217104 -0.012952265
-0.03103988 -0.023535244 -0.005187328 -0.011551111 -0.04812053 0.029071119 0.0032161372 -0.029915504
-0.021291014 -0.016645627 0.03974158 0.020412238 0.0223562 0.06701316 -0.0023408278 -0.025220646
0.020353131 0.041885577 0.072582655 0.04935439 -0.015041956 -0.016288966 -0.02992321 -0.009171805
0.030290255 -6.852732e-06 -0.034861047 -0.0012155707 0.012952802 -0.037596963 0.009012751 0.014322899
-0.032268018 -0.005724083 -0.040965904 0.05523506 0.05726064 0.019244239 0.018878873 0.005927206
-0.0061080083 0.044248324 0.026025018 0.06166871 0.020380296 -0.043509364 -0.049550783 -0.0016802194
-0.013596402 0.019159209 0.027877929 0.025857078 0.008573829 0.029416312 -0.021966062 0.011588893

conv_layers.3.bias f4 [64]
00000000: f626 1bbd bdfc 13bd c465 ecbb b1c7 8abc
00000010: 6ba9 d63c 6de3 05bd 9d11 813c 12b6 5ebc
00000020: 025a 38bc 1c01 c4bc ab51 b9bc d7ab 153b
00000030: db62 15bd 518b 873c 9bed a93b fe82 a73c
00000040: e07d 13bb b99b a4bc f0b8 eabc 41d7 d8bb
00000050: 0e67 ea3b 90d0 cdbb c117 09bc b369 fd37
00000060: f9fa ef3c 5965 ab3a ed41 a4ba 1807 c3bc
00000070: 7cf4 5d3c 3eba 82bc 8cf9 09bc bc39 0cb9
00000080: 307e a83c dc08 0dbd 637c 703c 280d abbc
00000090: cc39 3e3c ce3c 0bbd 6677 21bc 977c dc3c
000000a0: c223 1c3d 09c6 bdbc 52f6 103a a25d 9dbc
000000b0: 7c9d 49bd 4d97 20bd f83f 4abc 29f8 eb3c
000000c0: 045e c8bc 115b 073d 8a12 923c 2fae 093d
000000d0: c542 bc3c e9c4 adbc 0d52 a539 e1ec 7dbc
000000e0: 7f76 0fbd 8947 40bc 97b3 e73c 65b0 b4bc
000000f0: 3752 7cbc 8ea0 25bd 8ebe 27bc e711 f33c
-0.037878953 -0.036129702 -0.00721428 -0.016940923 0.026203832 -0.032687593 0.015755469 -0.013593214
-0.011251928 -0.02392631 -0.02262195 0.002283802 -0.03647123 0.016545923 0.0051857955 0.020448204
-0.0022505447 -0.020093786 -0.028652638 -0.006617457 0.0071533984 -0.006280966 -0.00836748 3.020917e-05
0.029294478 0.0013076469 -0.0012531854 -0.023807094 0.013547059 -0.015957948 -0.008421313 -0.00013372948
0.020567983 -0.034432277 0.014678094 -0.020880297 0.01161046 -0.033993535 -0.009855127 0.026914878
0.03812004 -0.02316572 0.00055298686 -0.019209687 -0.049222454 -0.03920679 -0.012344353 0.028804855
-0.024458893 0.033045832 0.017831106 0.03361338 0.022981057 -0.021212058 0.00031532385 -0.015498371
-0.035025116 -0.011735805 0.028283877 -0.022056768 -0.015400461 -0.04043632 -0.010238303 0.029671622

fc_layers.0.weight f4 [128, 1024]
00000000: f14c 143d c8f9 f13c 392f 393b 8c68 6dbc
00000010: fad9 29bd 05fe 54bb 4453 513c e173 5e3c
00000020: 0784 603d fd18 d53c ae33 ce3b 1865 84bb
00000030: 04c3 41bd 3720 e5bb cd6c 5cbd 07ba 763b
00000040: 4922 c3bc 1131 8ebc 290d 7d3c dd96 663a
00000050: a4b0 6e3c 4a59 95bc 919d c7bb d0c4 90ba
00000060: e372 653c 7db0 c8bc 0543 be3c b012 b7bb
00000070: bf3f a1bc 0e92 ecbc e387 f4bc 74a7 22bd
00000080: a664 cf3b 321d dfbc 4179 993c 2b7a a03b
00000090: 69d7 78bb da8b d0bc f6c6 27bc 96b8 bb3c
000000a0: c1be cbbc 1721 2dbd 0e38 3c3c a12a 5b3b
000000b0: 99d8 223c b533 893c 76ac 14bc 40d9 d93b
000000c0: d414 f33c 004e ed38 acd8 70bc d8e2 e8bc
000000d0: aad3 b8bc 520f a4bb faf2 c2bc f099 2ebc
000000e0: f03b 0bbc 4497 dcbc 667e a13c c08a 2ebc
000000f0: befa db3c 8106 cc3c 4896 c53c 8026 beba
00000100: ba2a 38bc 38dc 433c 497f c8bc 644b 0dbc
00000110: 1bb5 e2bc 4caf c23c 99a5 42bb 9688 59bc
00000120: fb8a 133b 84aa 413d 04f7 afbb 3ba1 8c3c
00000130: 1aaa 03bd 0aa0 3abd 1f7a 49bd e8a3 863c
00000140: cfd9 b33c dce7 a73c e730 5bbc 5b5e 82bc
00000150: 887c cdbc 754e f83c 66cd d3bc acc5 ad39
00000160: 7c3f 9ebc a8a1 f03c 0d08 d03b e9e9 0f3c
00000170: f7ee 15bd 4810 b2bc 48da 793c bdca a43b
00000180: 8f5a 483c f21e 31bb 496f 1c3c c512 9e3b
00000190: a1dc b03c 611e 983b 47e3 9ebb 5943 93bb
000001a0: 9c7e df3c 1b15 c63c a468 3ebc d4dc 213d
000001b0: 2138 5ebd bf3a 99bd 9633 25bb 2816 2039
000001c0: 00cc a43c 6cfa 823b cbf8 cc3b b551 883c
000001d0: e895 47bc 67ae bfbb a6c5 83bc 52bb 713c
000001e0: 02ee 343c ec58 f5bb 1230 1bbc 98ef e03c
000001f0: 319c ea3b fd24 0ebc 1e0d 6c37 c895 623c
00000200: 4448 e23c 258e adbc b679 cc3b dcbe 0c3d
00000210: ab96 8ebc c2e3 65bc 3497 0cbc e800 213d
00000220: 5c1c dfbb 7bbb 353d a7ae dc38 e2c7 fa3c
00000230: 4069 70bc 3358 283d 28ad f83a d755 6a3d
00000240: 0993 04bb 075a 463b 8790 0f3d 18bc baba
00000250: 2344 02bc 5db3 54bc d813 01bc 6c07 3a3d
00000260: 6c91 c33c eac1 79bc d8a7 003c 01ed efbb
00000270: 7998 35bd 6033 ffbd e43a 19be 1856 c2bd
00000280: f658 47bb 9cca 63bc 04e0 6cbc 2660 92bc
00000290: 4631 d0bb a3e8 01bc e79b 02bc b769 833c
000002a0: 81a0 643c 9f7f a53c a35e 7cbc a053 a3bc
000002b0: 1052 cc3c 8e4e 193d 748f 6f3c fdd8 c83b
000002c0: 87b4 c439 ef13 b03b 9069 68bc 8241 86bc
000002d0: 4fd5 d1bc 389b 283b a398 013b d66c 0abd
000002e0: 1467 1dbb ecc8 25bd 0418 a2bc 6bbf 2abd
000002f0: 99ba b83c 67c1 2dbb e45b 05bd 56d7 393b
00000300: f249 763c 9381 983c 3171 d3bc 18ac f43c
00000310: 0afe f8bc 071a 583c 7bab 2c3c 3cc4 6c3c
00000320: 2519 f9bb 3125 933c 3b10 a2bc f37a b2bc
00000330: 3e36 ddbc 2b83 87bc 3e0f 4abc e99b 933c
00000340: f26d 1fbb c2c9 30bc f10b a43c 863a 93bc
00000350: dfb3 0f3b 410f ee3c 0571 a73c 6c35 da3c
00000360: 78e7 cabc 1508 2bbc 83ce cf3b 7153 acbc
00000370: 9514 ff3c 8056 47bb 0aa8 feba 026a a33c
00000380: d18b 24bd 560e 4ebb cc75 9a3c cb14 113d
00000390: aee6 ba3c 727e c5bb f4c3 20bd 15fa dc3c
000003a0: 6222 d1bc 28b9 31bc 8876 893c 5741 d13a
000003b0: 2229 b73c fdc8 ecbc 0066 a4bc 72e7 cebc
000003c0: 549f e23c 9c11 053b 9bf1 833c a9f9 a9bc
000003d0: 5a07 96bc d627 923c 2111 53bc 1d57 333c
000003e0: 8651 05bc 11db e4bb 2f73 fc3c 5cc8 fd3c
000003f0: 26ca ab3b 31ce a2bc 5910 efbc 1778 853c
0.03620619 0.02953805 0.0028256907 -0.014490258 -0.041467644 -0.003250004 0.0127762 0.013577432
0.05481341 0.026012892 0.006292782 -0.0040403716 -0.047305122 -0.0069923657 -0.053814698 0.0037647502
-0.02382006 -0.017357381 0.015445032 0.0008796284 0.014568482 -0.018231053 -0.0060917814 -0.0011044983
0.014004442 -0.024498219 0.023225317 -0.0055869445 -0.019683717 -0.028878238 -0.029849952 -0.039710477
0.006329137 -0.027235601 0.018734576 0.004897376 -0.0037970191 -0.025457311 -0.010240307 0.022915166
-0.024871232 -0.042267885 0.011487974 0.0033442157 0.009939336 0.016748289 -0.009074321 0.0066482127
0.029673018 0.00011315569 -0.014700096 -0.02842848 -0.022561867 -0.005006709 -0.0237975 -0.010656819
-0.008498177 -0.026927598 0.019713592 -0.010653198 0.026852962 0.024905445 0.024119511 -0.0014507324
-0.011240656 0.01195436 -0.024474757 -0.008623932 -0.027674248 0.023765229 -0.0029700755 -0.0132771935
0.0022513259 0.047281757 -0.0053700227 0.017166724 -0.032144643 -0.04556278 -0.04918873 0.016435578
0.021954445 0.020496301 -0.013378358 -0.015914133 -0.025083795 0.030310849 -0.025854778 0.00033144408
-0.019317381 0.029373959 0.006348616 0.008783796 -0.036604848 -0.02173628 0.015249796 0.005029051
0.012228622 -0.0027026501 0.009548017 0.004824015 0.021589579 0.0046422933 -0.004848871 -0.0044941125
0.027282052 0.024179986 -0.011621628 0.03951724 -0.054252747 -0.07481908 -0.002520775 0.00015267043
0.020116806 0.003997138 0.0062552444 0.016640523 -0.0121817365 -0.005849648 -0.016085457 0.014754133
0.011043074 -0.007487407 -0.00947191 0.027457997 0.0071597327 -0.008675811 1.406975e-05 0.013829656
0.02762235 -0.021185944 0.006240095 0.034361705 -0.017405828 -0.0140313525 -0.0085809715 0.039307505
-0.0068088006 0.04436825 0.00010522949 0.03061289 -0.014673531 0.04109974 0.0018972503 0.05721077
-0.0020229241 0.0030266063 0.03504994 -0.001424673 -0.007950815 -0.012982217 -0.007878266 0.045417234
0.023873053 -0.015243987 0.007852517 -0.0073219542 -0.044334862 -0.12460971 -0.14963871 -0.09489077
-0.0030418015 -0.013903286 -0.014457706 -0.017868113 -0.00635353 -0.007929 -0.00797174 0.01604162
0.013954283 0.020202456 -0.0154034225 -0.019937336 0.024941474 0.03742843 0.014621604 0.0061293826
0.00037518537 0.00537347 -0.014185324 -0.016388658 -0.025614409 0.0025727283 0.0019774816 -0.0337952
-0.0024017738 -0.040474817 -0.019786842 -0.041686457 0.022549914 -0.0026512982 -0.032558337 0.002835711
0.015032278 0.018616473 -0.02581081 0.029867217 -0.030394573 0.013189799 0.010538931 0.014451083
-0.0076018744 0.01796207 -0.01978313 -0.021787142 -0.027003404 -0.016542038 -0.012332736 0.01801868
-0.0024327007 -0.01079029 0.020025225 -0.017972242 0.002192728 0.029060008 0.020439634 0.026636802
-0.024768576 -0.010438939 0.006341757 -0.021035882 0.031137744 -0.0030416548 -0.0019428742 0.01994801
-0.0401724 -0.003144165 0.018854998 0.03542022 0.022815075 -0.0060270363 -0.039249375 0.026974717
-0.02552909 -0.010847367 0.016780153 0.0015964907 0.02235848 -0.028904432 -0.020068169 -0.025256846
0.027663864 0.0020304685 0.016106417 -0.02074893 -0.018314052 0.01784126 -0.012882502 0.010946062
-0.0081371125 -0.0069841226 0.030816643 0.030979328 0.005242604 -0.01987371 -0.0291826 0.016292615

fc_layers.0.bias f4 [128]
00000000: db09 feb9 b0bb 0cbd a249 b6bc 4e84 af3b
00000010: dc90 bc3c 819c 00bd 376c e43b dded 14bc
00000020: 75f4 5f3c c4c7 aebb 54c7 bebc 46bd 01bd
00000030: 50ed 61bc 2066 2c3c ec80 c0bb c791 6a3c
00000040: c557 d4bc c65e d03c 0e62 54bc c77e c53c
00000050: 3fbe b33b 4a17 b1bc 7f52 fcbb dd0a 3b3c
00000060: 71c9 003d ee89 f539 80ab 133d 3065 c93c
00000070: 4cc8 f83b 96e3 9e3c ebe2 9ebc c544 0e3c
00000080: 8626 0abc 149c 193c b283 9ebb ce7f 583c
00000090: 6364 ebbb 245a a0bc 048d 023c 4625 c3bb
000000a0: 5312 9cbc ec46 0a3c 2375 ce3c a6ee 69bb
000000b0: 2ad6 b3ba 1350 a4bc 2d29 0bbb 25a6 f4ba
000000c0: 4a2c 023d 387f a33c 51ff ba3c e24f 37bc
000000d0: ffd7 ad3a b44d a9bc 43c5 833c 6045 9ebc
000000e0: 55e0 f83c 2734 eb3c c261 93bc 97bc 133c
000000f0: f0a3 bbbc 115a bcbc ad18 d43c 2eb5 083c
00000100: eacf a6bb ebe6 d2bc 431b 8b3c 439a ef3c
00000110: 5816 01bc b450 bc39 48cc d63b 6fb6 e1bc
00000120: bbb6 9d3b 70a2 52bc e3fb 0fbc 9d03 91bb
00000130: 3d58 58bc 882f 7cbc f332 a23c 95ce 893c
00000140: 43ed b93b 8ccd 88bc b07b 803c 3025 79bc
00000150: c6da 9a3c fdc7 053d ccf5 0c3d e0ec 093c
00000160: 4c51 b7ba 257b 1dbb 1098 a1bc 680e c8bb
00000170: e660 a4bc 56e0 27ba 8a58 963c 55b5 0c3d
00000180: 0875 85bc 1e6d cebc e932 ed3c 6250 b53c
00000190: e994 c7bc 89cb 45bc ee8c 40bc fb44 ce3c
000001a0: 0510 a3bc 3a04 693c 6df4 e1bc 03f2 40bc
000001b0: 0f3f dfba 295e c63c aa79 153d 85d2 e5bc
000001c0: 4960 b0bc 5aa6 8fbc 5d81 f13c de2c b7bc
000001d0: 8dcc c0bc 063e 3cbb bf35 1fbc a428 a63c
000001e0: 202a e8bb 6b5b 8ebc d017 5abc f7eb 513c
000001f0: 786c aa3c e1ac c63c 131d 4f3c e7c4 eb3c
-0.00048453998 -0.03435868 -0.022251908 0.005356348 0.023018293 -0.031399254 0.006970908 -0.009089914
0.013669123 -0.0053338725 -0.023288406 -0.031674646 -0.01378949 0.010522395 -0.0058747437 0.014316983
-0.025920758 0.025435816 -0.012962831 0.024108304 0.0054853256 -0.02161755 -0.007700264 0.011416164
0.03144211 0.00046832807 0.036052227 0.024584383 0.0075922366 0.01939563 -0.019395312 0.008683388
-0.008432036 0.009375591 -0.0048374766 0.013214065 -0.007183598 -0.019574232 0.007968191 -0.005955371
-0.019051706 0.008439761 0.02520234 -0.0035695224 -0.0013720442 -0.020057714 -0.002123426 -0.0018665238
0.03178052 0.019958124 0.022826822 -0.011188479 0.0013263224 -0.020666935 0.016085273 -0.01932019
0.030380407 0.028711392 -0.01799095 0.009017131 -0.02290532 -0.022992166 0.025890673 0.008343978
-0.0050907033 -0.025744876 0.016980773 0.029248362 -0.007878862 0.00035918283 0.006555114 -0.027552811
0.004813043 -0.012856111 -0.008788082 -0.0044254796 -0.013204631 -0.015392192 0.019799685 0.016822139
0.0056740358 -0.016699575 0.015683979 -0.01520662 0.018903147 0.032661427 0.034414098 0.008418292
-0.001398602 -0.0024029699 -0.01972583 -0.006105233 -0.020065736 -0.0006403973 0.018352766 0.03435262
-0.016291156 -0.025198516 0.02895494 0.022133056 -0.024362998 -0.012072452 -0.01175235 0.025179377
-0.0199051 0.014222199 -0.027582372 -0.01177645 -0.0017032343 0.024214821 0.03649298 -0.028054485
-0.021530287 -0.017535377 0.02948063 -0.022360262 -0.023535037 -0.0028723492 -0.009717404 0.02028305
-0.0070851 -0.017377576 -0.013311341 0.012812606 0.020803675 0.024252357 0.012641209 0.028780414

fc_layers.3.weight f4 [10, 128]
00000000: 758f 1ebe 8270 963d 27b3 8dbd 9cce 24be
00000010: 1a33 bfbd 071d aa3d 96aa fabd e178 5b3b
00000020: 36c6 9abd 4015 0ebb 20ca 8e3d fbf9 c43c
00000030: 33db 473b 9aab cb3d ffba ecbd 9519 313e
00000040: 975e 63be c5b6 803c de0b 513d cfa7 98bd
00000050: 74e1 8f3d 98f4 333e 5a6b 3b3c d6dc 55bc
00000060: 269f a03a a3f4 59bd 2670 6bbd 76a9 063e
00000070: 4ac3 71be 3940 293e 0045 15be 7878 67bd
00000080: ed40 1ebd 18f7 9d3d 5577 4ebd cfbe 10be
00000090: ebf6 e5bb 0ab7 0abe 72f1 ad3d 40ce 47bd
000000a0: b45d 283e d55a ed3d 04a3 b1bc f3a4 d9bd
000000b0: a791 163e 6c8d 3c3e 397c 673d 9d3e e93d
000000c0: 1a25 42bd d170 ebbd 07ab 0bbe 9314 66be
000000d0: 94a6 53be 04d1 22bd f974 9bbc 0ee6 8ebd
000000e0: 61e1 cdbc f1ee 8c3d e31b 37bd 7822 52bd
000000f0: a561 e53d dc0f d3bd b64e 26be e09c a3bd
00000100: 9c48 893d 514c 41be 2d78 b7bc 9e86 8d3d
00000110: 93a5 d03d 8e90 45bd c3ad 803c 33b8 8d3d
00000120: 6e06 903d 93bb 56bc 0a7c 1a3e 64ee 193e
00000130: 655d 3bbd 5793 2f3d 6033 74bb b131 4ebe
00000140: c2b7 1e3e 340e 0e3e 18c7 063d c540 bebd
00000150: 565f 25be eb9d 80bd 1d67 b8bb 29a6 2cbe
00000160: e53a 8c3d af71 d13d 384f cb3c 9b30 af3d
00000170: 7969 a4bd db12 e2bd 5264 b4bd 8334 b83c
00000180: 4181 c93d c853 ac3d 1a25 533d 19c3 e03d
00000190: 7e4c 0b3e 8cb6 9a3c 7861 66be c92f ec3d
000001a0: fb4e 64bb 73bb 8dbd e4a9 0bbd 9e2f 59be
000001b0: 5b47 e83d 4b17 eabc b4db b03d dafc d8bc
000001c0: 1cc3 a3bd 7ee5 313e c27a ea3a af96 2f3d
000001d0: 5e24 a33d 3477 283e 7cc3 acbd 929a a0bd
000001e0: f38a 87bd 2215 09bc f13a 193e 5a15 183c
000001f0: e55f 42bd 19ea d53d c421 f2bc b3ae 3f3d
00000200: 55a0 023c 3001 a53d c33b 903d 1c1f 403e
00000210: 0f80 cdbd e865 c03d 19b9 693e 09a2 80bd
00000220: f058 1f3e 309e ac3d 28a3 c43c 6870 843c
00000230: 950d a3bd ce77 e2bd 814d d03d 4c29 f9bc
00000240: 2ae7 10be f018 aa3d 3eef 943c e29a 9fbd
00000250: 261a 013e cb3e 10be 4143 853d 6a2d 17bc
00000260: 9eb0 72bd 3e21 da3b e60e 4f3e af87 6cbe
00000270: 3eff 503d 4106 e0bc 2f20 ecbd 2652 563c
00000280: cef4 78bb 79d2 67bc 7599 5b3d 1390 09be
00000290: e3a9 b4bd d237 4c3d c02b 063e ca54 4dbd
000002a0: 6eef 753d 0de1 c3bd e775 6abe b949 1e3e
000002b0: 246d 77bd 12e2 e2bd 31e1 18bd 708b da3c
000002c0: 6738 f4bd 9719 a63d b473 893d a778 4a3e
000002d0: 17e7 e93c 1d49 eebc d9a7 e53d 4b67 783d
000002e0: b69f a33d 2823 163d e7a2 363e 2c32 82bd
000002f0: b12a b43d 1fb0 2f3e 5c94 d33d 396c dfbd
00000300: 9805 f0bd 15cb 3dbe 45b1 083e d230 033e
00000310: 664d 91be c42b 153e c0bb aebd 7b71 053e
00000320: f6a0 bf3d b49f 443c cac7 1bbe 06e0 e8bb
00000330: 04df b13d d65e 203e 456d 143e 3776 103e
00000340: a759 033e 6791 bd3d 20ae d0ba 48ae b83c
00000350: 2dc9 b6bd 38e6 5cbe af0b 6b3d 51a9 51be
00000360: f855 77bd 6dec b43d 2771 ac3d 25ac 893d
00000370: 72c1 883d d433 90bc 6f17 d73d 0aed 8abd
00000380: 2217 5dbc f82c fabc 2662 e43d 9a16 3f3e
00000390: 7abe ef3d 88da b13d 076c 7a3e 4e22 083d
000003a0: a99d b03d 528c 66bd f27b 31be 8996 0a3d
000003b0: e1f4 c03c 6e5d 19bd b900 ddbc b732 9a3d
000003c0: 3ac1 cbba 80a2 9abd 9eae f33b a9d3 24bd
000003d0: 6ac9 ee3c d4cc 3bbe cdfb 83bd 6cc2 0c3d
000003e0: d08f cdbc 5087 b2bd 66a3 8e3c bd96 73bd
000003f0: 16f9 4b3c 7a0e 00be a0e7 d93d 1f2c 4fbe
-0.15484412 0.07345678 -0.06918936 -0.1609444 -0.09335919 0.08306318 -0.12239568 0.0033488797
-0.07557337 -0.0021680146 0.06972146 0.024044981 0.0030495643 0.0994484 -0.11559104 0.17294915
-0.22204052 0.015712151 0.051036708 -0.07453882 0.07025424 0.17573774 0.011439169 -0.01305314
0.0012254461 -0.05321182 -0.05748 0.13150582 -0.23609653 0.16528405 -0.14577103 -0.056511372
-0.038636137 0.07713145 -0.050406773 -0.14135288 -0.0070179603 -0.13546386 0.08493318 -0.04878068
0.16441995 0.115895905 -0.021684177 -0.10627165 0.14704 0.18413323 0.056514952 0.11388896
-0.047398664 -0.114961274 -0.1363946 -0.22468786 -0.20669013 -0.039750114 -0.018976675 -0.06977473
-0.025131883 0.06881512 -0.04470433 -0.051302403 0.11200265 -0.10305759 -0.16240963 -0.07988906
0.06703302 -0.18876769 -0.022396171 0.06910442 0.10187831 -0.04823356 0.015707856 0.06919899
0.07032476 -0.013106245 0.1508638 0.15032345 -0.045743365 0.042865124 -0.0037262067 -0.20136143
0.15499786 0.13872606 0.032904714 -0.092896976 -0.16149649 -0.062801205 -0.0056275264 -0.1686026
0.06847171 0.102267615 0.024818048 0.08554193 -0.0802793 -0.11038753 -0.08808197 0.022485977
0.09839106 0.084144175 0.051549055 0.10974712 0.13603398 0.018885873 -0.22498119 0.11532552
-0.0034837115 -0.06920519 -0.034097567 -0.21209571 0.11341735 -0.02857556 0.08635655 -0.026487757
-0.079961985 0.173727 0.0017889368 0.042868312 0.07965921 0.16451722 -0.08435723 -0.07841982
-0.06618299 -0.008366855 0.1496389 0.009282434 -0.047454733 0.10445041 -0.029557116 0.046797466
0.007972796 0.08056867 0.07042649 0.18761867 -0.10034191 0.09394437 0.22824515 -0.06280906
0.1556127 0.08428609 0.02400358 0.01616688 -0.07961575 -0.11058007 0.10171033 -0.0304152
-0.14150682 0.08305538 0.018180486 -0.077932134 0.12607631 -0.14086454 0.06506968 -0.009227136
-0.059250467 0.006656795 0.20220527 -0.23098634 0.051024668 -0.027346732 -0.11529576 0.013081109
-0.0037987712 -0.014149302 0.053613145 -0.13433866 -0.08821466 0.049857922 0.13102627 -0.05012969
0.06004279 -0.095644094 -0.22896539 0.1545781 -0.06040682 -0.11078276 -0.037324134 0.026677817
-0.119248204 0.081103496 0.06711522 0.19772588 0.028552575 -0.029087598 0.11213655 0.060645383
0.07989447 0.03665462 0.1783558 -0.06357226 0.08797205 0.17157029 0.10331032 -0.10909314
-0.11719817 -0.18534501 0.13348873 0.12811592 -0.28379363 0.14567477 -0.08531904 0.1303157
0.09356873 0.012000967 -0.15212932 -0.007106784 0.08685115 0.15661177 0.14494808 0.14107595
0.12827168 0.09256249 -0.0015921034 0.022544041 -0.0892509 -0.21572196 0.05738419 -0.20474745
-0.06038472 0.08834157 0.084200196 0.06722287 0.06677522 -0.017602839 0.105025165 -0.06783493
-0.013494285 -0.03053902 0.11151533 0.18660966 0.117062524 0.0868426 0.24455272 0.03323584
0.08623821 -0.056286164 -0.17332438 0.033834968 0.023554267 -0.037442617 -0.026977884 0.07529204
-0.0015545257 -0.07550526 0.0074365875 -0.040240917 0.029148776 -0.18339854 -0.064445116 0.034365103
-0.02509299 -0.08717215 0.017411899 -0.059469927 0.012449523 -0.12505522 0.10639882 -0.20231675

fc_layers.3.bias f4 [10]
00000000: f32b f73c 785b 9e3a 297a ffbb 4112 8bbd
00000010: 982b 2a3c 503a 913d fcdc 85bd 505e 233d
00000020: 112f b4bc fa87 793d
0.030172324 0.0012081703 -0.007796545 -0.06790591 0.01038637 0.070912 -0.0653629 0.039884865
-0.0219951 0.060920693
